…
rena,\n  epochs = 80,\n  verbose = TRUE, \n  validation_data = list(x = x[-indices_entrena,,,], \n                         y = y_imagenes[-c(indices_entrena)] / 10)\n)\nsave_model_hdf5(modelo_aguja, \"cache/modelo-aguja.h5\")\n\n\nmodelo <- load_model_hdf5(\"cache/modelo-aguja.h5\")\nmodelo\n\nModel: \"sequential\"\n________________________________________________________________________________\nLayer (type)                        Output Shape                    Param #     \n================================================================================\nconv2d_2 (Conv2D)                   (None, 60, 60, 32)              2432        \n________________________________________________________________________________\nmax_pooling2d_2 (MaxPooling2D)      (None, 30, 30, 32)              0           \n________________________________________________________________________________\nconv2d_1 (Conv2D)                   (None, 26, 26, 32)              25632       \n________________________________________________________________________________\nmax_pooling2d_1 (MaxPooling2D)      (None, 13, 13, 32)              0           \n________________________________________________________________________________\nconv2d (Conv2D)                     (None, 11, 11, 16)              4624        \n________________________________________________________________________________\nmax_pooling2d (MaxPooling2D)        (None, 5, 5, 16)                0           \n________________________________________________________________________________\nflatten (Flatten)                   (None, 400)                     0           \n________________________________________________________________________________\ndropout_1 (Dropout)                 (None, 400)                     0           \n________________________________________________________________________________\ndense_1 (Dense)                     (None, 100)                     40100       \n________________________________________________________________________________\ndropout (Dropout)                   (None, 100)                     0           \n________________________________________________________________________________\ndense (Dense)                       (None, 1)                       101         \n================================================================================\nTotal params: 72,889\nTrainable params: 72,889\nNon-trainable params: 0\n________________________________________________________________________________\n\n\nY observamos que obtenemos predicciones prometedoras:\n\npreds <- predict(modelo, x[-indices_entrena,,,])\npreds_tbl <- tibble(y = y_imagenes[-c(ind
…
